…
65828  7727 layer_factory.hpp:77] Creating layer cifar
I1206 18:34:41.865921  7727 net.cpp:100] Creating Layer cifar
I1206 18:34:41.865945  7727 net.cpp:408] cifar -> data
I1206 18:34:41.865954  7727 net.cpp:408] cifar -> label
I1206 18:34:41.865962  7727 data_transformer.cpp:25] Loading mean file from: dataset/kdef_aug_test_mean.binaryproto
I1206 18:34:41.866809  7732 db_lmdb.cpp:35] Opened lmdb dataset/kdef_aug_test
I1206 18:34:41.866917  7727 data_layer.cpp:41] output data size: 100,3,100,100
I1206 18:34:41.884101  7727 net.cpp:150] Setting up cifar
I1206 18:34:41.884130  7727 net.cpp:157] Top shape: 100 3 100 100 (3000000)
I1206 18:34:41.884138  7727 net.cpp:157] Top shape: 100 (100)
I1206 18:34:41.884141  7727 net.cpp:165] Memory required for data: 12000400
I1206 18:34:41.884177  7727 layer_factory.hpp:77] Creating layer label_cifar_1_split
I1206 18:34:41.884192  7727 net.cpp:100] Creating Layer label_cifar_1_split
I1206 18:34:41.884201  7727 net.cpp:434] label_cifar_1_split <- label
I1206 18:34:41.884209  7727 net.cpp:408] label_cifar_1_split -> label_cifar_1_split_0
I1206 18:34:41.884222  7727 net.cpp:408] label_cifar_1_split -> label_cifar_1_split_1
I1206 18:34:41.884279  7727 net.cpp:150] Setting up label_cifar_1_split
I1206 18:34:41.884285  7727 net.cpp:157] Top shape: 100 (100)
I1206 18:34:41.884292  7727 net.cpp:157] Top shape: 100 (100)
I1206 18:34:41.884297  7727 net.cpp:165] Memory required for data: 12001200
I1206 18:34:41.884302  7727 layer_factory.hpp:77] Creating layer conv1
I1206 18:34:41.884317  7727 net.cpp:100] Creating Layer conv1
I1206 18:34:41.884323  7727 net.cpp:434] conv1 <- data
I1206 18:34:41.884331  7727 net.cpp:408] conv1 -> conv1
I1206 18:34:41.884549  7727 net.cpp:150] Setting up conv1
I1206 18:34:41.884559  7727 net.cpp:157] Top shape: 100 32 100 100 (32000000)
I1206 18:34:41.884564  7727 net.cpp:165] Memory required for data: 140001200
I1206 18:34:41.884574  7727 layer_factory.hpp:77] Creating layer pool1
I1206 18:34:41.884584  7727 net.cpp:100] Creating Layer pool1
I1206 18:34:41.884590  7727 net.cpp:434] pool1 <- conv1
I1206 18:34:41.884598  7727 net.cpp:408] pool1 -> pool1
I1206 18:34:41.884630  7727 net.cpp:150] Setting up pool1
I1206 18:34:41.884639  7727 net.cpp:157] Top shape: 100 32 50 50 (8000000)
I1206 18:34:41.884644  7727 net.cpp:165] Memory required for data: 172001200
I1206 18:34:41.884649  7727 layer_factory.hpp:77] Creating layer bn1
I1206 18:34:41.884657  7727 net.cpp:100] Creating Layer bn1
I1206 18:34:41.884662  7727 net.cpp:434] bn1 <- pool1
I1206 18:34:41.884670  7727 net.cpp:408] bn1 -> bn1
I1206 18:34:41.884819  7727 net.cpp:150] Setting up bn1
I1206 18:34:41.884827  7727 net.cpp:157] Top shape: 100 32 50 50 (8000000)
I1206 18:34:41.884834  7727 net.cpp:165] Memory required for data: 204001200
I1206 18:34:41.884847  7727 layer_factory.hpp:77] Creating layer Sigmoid1
I1206 18:34:41.884856  7727 net.cpp:100] Creating Layer Sigmoid1
I1206 18:34:41.884862  7727 net.cpp:434] Sigmoid1 <- bn1
I1206 18:34:41.884871  7727 net.cpp:408] Sigmoid1 -> Sigmoid1
I1206 18:34:41.884896  7727 net.cpp:150] Setting up Sigmoid1
I1206 18:34:41.884902  7727 net.cpp:157] Top shape: 100 32 50 50 (8000000)
I1206 18:34:41.884908  7727 net.cpp:165] Memory required for data: 236001200
I1206 18:34:41.884913  7727 layer_factory.hpp:77] Creating layer conv2
I1206 18:34:41.884924  7727 net.cpp:100] Creating Layer conv2
I1206 18:34:41.884930  7727 net.cpp:434] conv2 <- Sigmoid1
I1206 18:34:41.884938  7727 net.cpp:408] conv2 -> conv2
I1206 18:34:41.886160  7727 net.cpp:150] Setting up conv2
I1206 18:34:41.886181  7727 net.cpp:157] Top shape: 100 32 50 50 (8000000)
I1206 18:34:41.886188  7727 net.cpp:165] Memory required for data: 268001200
I1206 18:34:41.886199  7727 layer_factory.hpp:77] Creating layer bn2
I1206 18:34:41.886210  7727 net.cpp:100] Creating Layer bn2
I1206 18:34:41.886215  7727 net.cpp:434] bn2 <- conv2
I1206 18:34:41.886221  7727 net.cpp:408] bn2 -> bn2
I1206 18:34:41.886374  7727 net.cpp:150] Setting up bn2
I1206 18:34:41.886384  7727 net.cpp:157] Top shape: 100 32 50 50 (8000000)
I1206 18:34:41.886389  7727 net.cpp:165] Memory required for data: 300001200
I1206 18:34:41.886399  7727 layer_factory.hpp:77] Creating layer Sigmoid2
I1206 18:34:41.886409  7727 net.cpp:100] Creating Layer Sigmoid2
I1206 18:34:41.886415  7727 net.cpp:434] Sigmoid2 <- bn2
I1206 18:34:41.886423  7727 net.cpp:408] Sigmoid2 -> Sigmoid2
I1206 18:34:41.886447  7727 net.cpp:150] Setting up Sigmoid2
I1206 18:34:41.886456  7727 net.cpp:157] Top shape: 100 32 50 50 (8000000)
I1206 18:34:41.886461  7727 net.cpp:165] Memory required for data: 332001200
I1206 18:34:41.886466  7727 layer_factory.hpp:77] Creating layer pool2
I1206 18:34:41.886474  7727 net.cpp:100] Creating Layer pool2
I1206 18:34:41.886481  7727 net.cpp:434] pool2 <- Sigmoid2
I1206 18:34:41.886509  7727 net.cpp:408] pool2 -> pool2
I1206 18:34:41.886535  7727 net.cpp:150] Setting up pool2
I1206 18:34:41.886543  7727 net.cpp:157] Top shape: 100 32 25 25 (2000000)
I1206 18:34:41.886548  7727 net.cpp:165] Memory required for data: 340001200
I1206 18:34:41.886554  7727 layer_factory.hpp:77] Creating layer conv3
I1206 18:34:41.886569  7727 net.cpp:100] Creating Layer conv3
I1206 18:34:41.886575  7727 net.cpp:434] conv3 <- pool2
I1206 18:34:41.886584  7727 net.cpp:408] conv3 -> conv3
I1206 18:34:41.888442  7727 net.cpp:150] Setting up conv3
I1206 18:34:41.888469  7727 net.cpp:157] Top shape: 100 64 25 25 (4000000)
I1206 18:34:41.888476  7727 net.cpp:165] Memory required for data: 356001200
I1206 18:34:41.888491  7727 layer_factory.hpp:77] Creating layer bn3
I1206 18:34:41.888504  7727 net.cpp:100] Creating Layer bn3
I1206 18:34:41.888509  7727 net.cpp:434] bn3 <- conv3
I1206 18:34:41.888519  7727 net.cpp:408] bn3 -> bn3
I1206 18:34:41.888680  7727 net.cpp:150] Setting up bn3
I1206 18:34:41.888691  7727 net.cpp:157] Top shape: 100 64 25 25 (4000000)
I1206 18:34:41.888695  7727 net.cpp:165] Memory required for data: 372001200
I1206 18:34:41.888706  7727 layer_factory.hpp:77] Creating layer Sigmoid3
I1206 18:34:41.888716  7727 net.cpp:100] Creating Layer Sigmoid3
I1206 18:34:41.888722  7727 net.cpp:434] Sigmoid3 <- bn3
I1206 18:34:41.888730  7727 net.cpp:408] Sigmoid3 -> Sigmoid3
I1206 18:34:41.888762  7727 net.cpp:150] Setting up Sigmoid3
I1206 18:34:41.888770  7727 net.cpp:157] Top shape: 100 64 25 25 (4000000)
I1206 18:34:41.888775  7727 net.cpp:165] Memory required for data: 388001200
I1206 18:34:41.888780  7727 layer_factory.hpp:77] Creating layer pool3
I1206 18:34:41.888789  7727 net.cpp:100] Creating Layer pool3
I1206 18:34:41.888795  7727 net.cpp:434] pool3 <- Sigmoid3
I1206 18:34:41.888818  7727 net.cpp:408] pool3 -> pool3
I1206 18:34:41.888847  7727 net.cpp:150] Setting up pool3
I1206 18:34:41.888857  7727 net.cpp:157] Top shape: 100 64 12 12 (921600)
I1206 18:34:41.888864  7727 net.cpp:165] Memory required for data: 391687600
I1206 18:34:41.888869  7727 layer_factory.hpp:77] Creating layer ip1
I1206 18:34:41.888880  7727 net.cpp:100] Creating Layer ip1
I1206 18:34:41.888885  7727 net.cpp:434] ip1 <- pool3
I1206 18:34:41.888893  7727 net.cpp:408] ip1 -> ip1
I1206 18:34:41.890686  7727 net.cpp:150] Setting up ip1
I1206 18:34:41.890712  7727 net.cpp:157] Top shape: 100 7 (700)
I1206 18:34:41.890719  7727 net.cpp:165] Memory required for data: 391690400
I1206 18:34:41.890732  7727 layer_factory.hpp:77] Creating layer ip1_ip1_0_split
I1206 18:34:41.890743  7727 net.cpp:100] Creating Layer ip1_ip1_0_split
I1206 18:34:41.890749  7727 net.cpp:434] ip1_ip1_0_split <- ip1
I1206 18:34:41.890759  7727 net.cpp:408] ip1_ip1_0_split -> ip1_ip1_0_split_0
I1206 18:34:41.890770  7727 net.cpp:408] ip1_ip1_0_split -> ip1_ip1_0_split_1
I1206 18:34:41.890813  7727 net.cpp:150] Setting up ip1_ip1_0_split
I1206 18:34:41.890821  7727 net.cpp:157] Top shape: 100 7 (700)
I1206 18:34:41.890827  7727 net.cpp:157] Top shape: 100 7 (700)
I1206 18:34:41.890832  7727 net.cpp:165] Memory required for data: 391696000
I1206 18:34:41.890838  7727 layer_factory.hpp:77] Creating layer accuracy
I1206 18:34:41.890858  7727 net.cpp:100] Creating Layer accuracy
I1206 18:34:41.890863  7727 net.cpp:434] accuracy <- ip1_ip1_0_split_0
I1206 18:34:41.890871  7727 net.cpp:434] accuracy <- label_cifar_1_split_0
I1206 18:34:41.890878  7727 net.cpp:408] accuracy -> accuracy
…
