…
:02:47.592108  3931 layer_factory.hpp:77] Creating layer cifar
I1206 14:02:47.592202  3931 net.cpp:100] Creating Layer cifar
I1206 14:02:47.592211  3931 net.cpp:408] cifar -> data
I1206 14:02:47.592219  3931 net.cpp:408] cifar -> label
I1206 14:02:47.592227  3931 data_transformer.cpp:25] Loading mean file from: dataset/kdef_test_mean.binaryproto
I1206 14:02:47.593076  3936 db_lmdb.cpp:35] Opened lmdb dataset/kdef_test
I1206 14:02:47.593207  3931 data_layer.cpp:41] output data size: 100,3,100,100
I1206 14:02:47.611881  3931 net.cpp:150] Setting up cifar
I1206 14:02:47.611912  3931 net.cpp:157] Top shape: 100 3 100 100 (3000000)
I1206 14:02:47.611918  3931 net.cpp:157] Top shape: 100 (100)
I1206 14:02:47.611922  3931 net.cpp:165] Memory required for data: 12000400
I1206 14:02:47.611948  3931 layer_factory.hpp:77] Creating layer label_cifar_1_split
I1206 14:02:47.611960  3931 net.cpp:100] Creating Layer label_cifar_1_split
I1206 14:02:47.611965  3931 net.cpp:434] label_cifar_1_split <- label
I1206 14:02:47.611970  3931 net.cpp:408] label_cifar_1_split -> label_cifar_1_split_0
I1206 14:02:47.611980  3931 net.cpp:408] label_cifar_1_split -> label_cifar_1_split_1
I1206 14:02:47.612022  3931 net.cpp:150] Setting up label_cifar_1_split
I1206 14:02:47.612027  3931 net.cpp:157] Top shape: 100 (100)
I1206 14:02:47.612031  3931 net.cpp:157] Top shape: 100 (100)
I1206 14:02:47.612033  3931 net.cpp:165] Memory required for data: 12001200
I1206 14:02:47.612036  3931 layer_factory.hpp:77] Creating layer conv1
I1206 14:02:47.612046  3931 net.cpp:100] Creating Layer conv1
I1206 14:02:47.612049  3931 net.cpp:434] conv1 <- data
I1206 14:02:47.612054  3931 net.cpp:408] conv1 -> conv1
I1206 14:02:47.612253  3931 net.cpp:150] Setting up conv1
I1206 14:02:47.612260  3931 net.cpp:157] Top shape: 100 32 100 100 (32000000)
I1206 14:02:47.612263  3931 net.cpp:165] Memory required for data: 140001200
I1206 14:02:47.612270  3931 layer_factory.hpp:77] Creating layer pool1
I1206 14:02:47.612277  3931 net.cpp:100] Creating Layer pool1
I1206 14:02:47.612280  3931 net.cpp:434] pool1 <- conv1
I1206 14:02:47.612284  3931 net.cpp:408] pool1 -> pool1
I1206 14:02:47.612308  3931 net.cpp:150] Setting up pool1
I1206 14:02:47.612313  3931 net.cpp:157] Top shape: 100 32 50 50 (8000000)
I1206 14:02:47.612318  3931 net.cpp:165] Memory required for data: 172001200
I1206 14:02:47.612320  3931 layer_factory.hpp:77] Creating layer bn1
I1206 14:02:47.612326  3931 net.cpp:100] Creating Layer bn1
I1206 14:02:47.612329  3931 net.cpp:434] bn1 <- pool1
I1206 14:02:47.612334  3931 net.cpp:408] bn1 -> bn1
I1206 14:02:47.612463  3931 net.cpp:150] Setting up bn1
I1206 14:02:47.612468  3931 net.cpp:157] Top shape: 100 32 50 50 (8000000)
I1206 14:02:47.612473  3931 net.cpp:165] Memory required for data: 204001200
I1206 14:02:47.612481  3931 layer_factory.hpp:77] Creating layer Sigmoid1
I1206 14:02:47.612488  3931 net.cpp:100] Creating Layer Sigmoid1
I1206 14:02:47.612490  3931 net.cpp:434] Sigmoid1 <- bn1
I1206 14:02:47.612495  3931 net.cpp:408] Sigmoid1 -> Sigmoid1
I1206 14:02:47.612510  3931 net.cpp:150] Setting up Sigmoid1
I1206 14:02:47.612515  3931 net.cpp:157] Top shape: 100 32 50 50 (8000000)
I1206 14:02:47.612519  3931 net.cpp:165] Memory required for data: 236001200
I1206 14:02:47.612522  3931 layer_factory.hpp:77] Creating layer conv2
I1206 14:02:47.612529  3931 net.cpp:100] Creating Layer conv2
I1206 14:02:47.612532  3931 net.cpp:434] conv2 <- Sigmoid1
I1206 14:02:47.612536  3931 net.cpp:408] conv2 -> conv2
I1206 14:02:47.613852  3931 net.cpp:150] Setting up conv2
I1206 14:02:47.613869  3931 net.cpp:157] Top shape: 100 32 50 50 (8000000)
I1206 14:02:47.613878  3931 net.cpp:165] Memory required for data: 268001200
I1206 14:02:47.613890  3931 layer_factory.hpp:77] Creating layer bn2
I1206 14:02:47.613901  3931 net.cpp:100] Creating Layer bn2
I1206 14:02:47.613909  3931 net.cpp:434] bn2 <- conv2
I1206 14:02:47.613919  3931 net.cpp:408] bn2 -> bn2
I1206 14:02:47.616340  3931 net.cpp:150] Setting up bn2
I1206 14:02:47.616367  3931 net.cpp:157] Top shape: 100 32 50 50 (8000000)
I1206 14:02:47.616372  3931 net.cpp:165] Memory required for data: 300001200
I1206 14:02:47.616384  3931 layer_factory.hpp:77] Creating layer Sigmoid2
I1206 14:02:47.616395  3931 net.cpp:100] Creating Layer Sigmoid2
I1206 14:02:47.616401  3931 net.cpp:434] Sigmoid2 <- bn2
I1206 14:02:47.616408  3931 net.cpp:408] Sigmoid2 -> Sigmoid2
I1206 14:02:47.616431  3931 net.cpp:150] Setting up Sigmoid2
I1206 14:02:47.616437  3931 net.cpp:157] Top shape: 100 32 50 50 (8000000)
I1206 14:02:47.616441  3931 net.cpp:165] Memory required for data: 332001200
I1206 14:02:47.616446  3931 layer_factory.hpp:77] Creating layer pool2
I1206 14:02:47.616456  3931 net.cpp:100] Creating Layer pool2
I1206 14:02:47.616461  3931 net.cpp:434] pool2 <- Sigmoid2
I1206 14:02:47.616469  3931 net.cpp:408] pool2 -> pool2
I1206 14:02:47.616513  3931 net.cpp:150] Setting up pool2
I1206 14:02:47.616519  3931 net.cpp:157] Top shape: 100 32 25 25 (2000000)
I1206 14:02:47.616523  3931 net.cpp:165] Memory required for data: 340001200
I1206 14:02:47.616528  3931 layer_factory.hpp:77] Creating layer conv3
I1206 14:02:47.616538  3931 net.cpp:100] Creating Layer conv3
I1206 14:02:47.616541  3931 net.cpp:434] conv3 <- pool2
I1206 14:02:47.616549  3931 net.cpp:408] conv3 -> conv3
I1206 14:02:47.618816  3931 net.cpp:150] Setting up conv3
I1206 14:02:47.618844  3931 net.cpp:157] Top shape: 100 64 25 25 (4000000)
I1206 14:02:47.618849  3931 net.cpp:165] Memory required for data: 356001200
I1206 14:02:47.618861  3931 layer_factory.hpp:77] Creating layer bn3
I1206 14:02:47.618871  3931 net.cpp:100] Creating Layer bn3
I1206 14:02:47.618876  3931 net.cpp:434] bn3 <- conv3
I1206 14:02:47.618883  3931 net.cpp:408] bn3 -> bn3
I1206 14:02:47.619041  3931 net.cpp:150] Setting up bn3
I1206 14:02:47.619050  3931 net.cpp:157] Top shape: 100 64 25 25 (4000000)
I1206 14:02:47.619055  3931 net.cpp:165] Memory required for data: 372001200
I1206 14:02:47.619062  3931 layer_factory.hpp:77] Creating layer Sigmoid3
I1206 14:02:47.619069  3931 net.cpp:100] Creating Layer Sigmoid3
I1206 14:02:47.619073  3931 net.cpp:434] Sigmoid3 <- bn3
I1206 14:02:47.619079  3931 net.cpp:408] Sigmoid3 -> Sigmoid3
I1206 14:02:47.619099  3931 net.cpp:150] Setting up Sigmoid3
I1206 14:02:47.619110  3931 net.cpp:157] Top shape: 100 64 25 25 (4000000)
I1206 14:02:47.619114  3931 net.cpp:165] Memory required for data: 388001200
I1206 14:02:47.619118  3931 layer_factory.hpp:77] Creating layer pool3
I1206 14:02:47.619125  3931 net.cpp:100] Creating Layer pool3
I1206 14:02:47.619132  3931 net.cpp:434] pool3 <- Sigmoid3
I1206 14:02:47.619140  3931 net.cpp:408] pool3 -> pool3
I1206 14:02:47.619163  3931 net.cpp:150] Setting up pool3
I1206 14:02:47.619168  3931 net.cpp:157] Top shape: 100 64 12 12 (921600)
I1206 14:02:47.619173  3931 net.cpp:165] Memory required for data: 391687600
I1206 14:02:47.619176  3931 layer_factory.hpp:77] Creating layer ip1
I1206 14:02:47.619185  3931 net.cpp:100] Creating Layer ip1
I1206 14:02:47.619189  3931 net.cpp:434] ip1 <- pool3
I1206 14:02:47.619195  3931 net.cpp:408] ip1 -> ip1
I1206 14:02:47.621031  3931 net.cpp:150] Setting up ip1
I1206 14:02:47.621060  3931 net.cpp:157] Top shape: 100 7 (700)
I1206 14:02:47.621065  3931 net.cpp:165] Memory required for data: 391690400
I1206 14:02:47.621075  3931 layer_factory.hpp:77] Creating layer ip1_ip1_0_split
I1206 14:02:47.621084  3931 net.cpp:100] Creating Layer ip1_ip1_0_split
I1206 14:02:47.621089  3931 net.cpp:434] ip1_ip1_0_split <- ip1
I1206 14:02:47.621096  3931 net.cpp:408] ip1_ip1_0_split -> ip1_ip1_0_split_0
I1206 14:02:47.621105  3931 net.cpp:408] ip1_ip1_0_split -> ip1_ip1_0_split_1
I1206 14:02:47.621137  3931 net.cpp:150] Setting up ip1_ip1_0_split
I1206 14:02:47.621145  3931 net.cpp:157] Top shape: 100 7 (700)
I1206 14:02:47.621151  3931 net.cpp:157] Top shape: 100 7 (700)
I1206 14:02:47.621157  3931 net.cpp:165] Memory required for data: 391696000
I1206 14:02:47.621163  3931 layer_factory.hpp:77] Creating layer accuracy
I1206 14:02:47.621179  3931 net.cpp:100] Creating Layer accuracy
I1206 14:02:47.621183  3931 net.cpp:434] accuracy <- ip1_ip1_0_split_0
I1206 14:02:47.621189  3931 net.cpp:434] accuracy <- label_cifar_1_split_0
I1206 14:02:47.621194  3931 net.cpp:408] accuracy -> accuracy
…
