…
44075  8225 layer_factory.hpp:77] Creating layer cifar
I1206 19:54:38.144181  8225 net.cpp:100] Creating Layer cifar
I1206 19:54:38.144187  8225 net.cpp:408] cifar -> data
I1206 19:54:38.144194  8225 net.cpp:408] cifar -> label
I1206 19:54:38.144201  8225 data_transformer.cpp:25] Loading mean file from: dataset/kdef_aug_test_mean.binaryproto
I1206 19:54:38.145046  8231 db_lmdb.cpp:35] Opened lmdb dataset/kdef_aug_test
I1206 19:54:38.145187  8225 data_layer.cpp:41] output data size: 100,3,100,100
I1206 19:54:38.163079  8225 net.cpp:150] Setting up cifar
I1206 19:54:38.163113  8225 net.cpp:157] Top shape: 100 3 100 100 (3000000)
I1206 19:54:38.163125  8225 net.cpp:157] Top shape: 100 (100)
I1206 19:54:38.163130  8225 net.cpp:165] Memory required for data: 12000400
I1206 19:54:38.163167  8225 layer_factory.hpp:77] Creating layer label_cifar_1_split
I1206 19:54:38.163188  8225 net.cpp:100] Creating Layer label_cifar_1_split
I1206 19:54:38.163198  8225 net.cpp:434] label_cifar_1_split <- label
I1206 19:54:38.163209  8225 net.cpp:408] label_cifar_1_split -> label_cifar_1_split_0
I1206 19:54:38.163223  8225 net.cpp:408] label_cifar_1_split -> label_cifar_1_split_1
I1206 19:54:38.163280  8225 net.cpp:150] Setting up label_cifar_1_split
I1206 19:54:38.163290  8225 net.cpp:157] Top shape: 100 (100)
I1206 19:54:38.163296  8225 net.cpp:157] Top shape: 100 (100)
I1206 19:54:38.163301  8225 net.cpp:165] Memory required for data: 12001200
I1206 19:54:38.163307  8225 layer_factory.hpp:77] Creating layer conv1
I1206 19:54:38.163323  8225 net.cpp:100] Creating Layer conv1
I1206 19:54:38.163329  8225 net.cpp:434] conv1 <- data
I1206 19:54:38.163338  8225 net.cpp:408] conv1 -> conv1
I1206 19:54:38.163574  8225 net.cpp:150] Setting up conv1
I1206 19:54:38.163583  8225 net.cpp:157] Top shape: 100 32 100 100 (32000000)
I1206 19:54:38.163589  8225 net.cpp:165] Memory required for data: 140001200
I1206 19:54:38.163599  8225 layer_factory.hpp:77] Creating layer pool1
I1206 19:54:38.163610  8225 net.cpp:100] Creating Layer pool1
I1206 19:54:38.163616  8225 net.cpp:434] pool1 <- conv1
I1206 19:54:38.163625  8225 net.cpp:408] pool1 -> pool1
I1206 19:54:38.163664  8225 net.cpp:150] Setting up pool1
I1206 19:54:38.163672  8225 net.cpp:157] Top shape: 100 32 50 50 (8000000)
I1206 19:54:38.163677  8225 net.cpp:165] Memory required for data: 172001200
I1206 19:54:38.163683  8225 layer_factory.hpp:77] Creating layer bn1
I1206 19:54:38.163693  8225 net.cpp:100] Creating Layer bn1
I1206 19:54:38.163699  8225 net.cpp:434] bn1 <- pool1
I1206 19:54:38.163707  8225 net.cpp:408] bn1 -> bn1
I1206 19:54:38.163914  8225 net.cpp:150] Setting up bn1
I1206 19:54:38.163924  8225 net.cpp:157] Top shape: 100 32 50 50 (8000000)
I1206 19:54:38.163929  8225 net.cpp:165] Memory required for data: 204001200
I1206 19:54:38.163946  8225 layer_factory.hpp:77] Creating layer Sigmoid1
I1206 19:54:38.163955  8225 net.cpp:100] Creating Layer Sigmoid1
I1206 19:54:38.163961  8225 net.cpp:434] Sigmoid1 <- bn1
I1206 19:54:38.163969  8225 net.cpp:408] Sigmoid1 -> Sigmoid1
I1206 19:54:38.164940  8225 net.cpp:150] Setting up Sigmoid1
I1206 19:54:38.164949  8225 net.cpp:157] Top shape: 100 32 50 50 (8000000)
I1206 19:54:38.164955  8225 net.cpp:165] Memory required for data: 236001200
I1206 19:54:38.164959  8225 layer_factory.hpp:77] Creating layer conv2
I1206 19:54:38.164971  8225 net.cpp:100] Creating Layer conv2
I1206 19:54:38.164978  8225 net.cpp:434] conv2 <- Sigmoid1
I1206 19:54:38.164986  8225 net.cpp:408] conv2 -> conv2
I1206 19:54:38.165841  8225 net.cpp:150] Setting up conv2
I1206 19:54:38.165856  8225 net.cpp:157] Top shape: 100 32 50 50 (8000000)
I1206 19:54:38.165861  8225 net.cpp:165] Memory required for data: 268001200
I1206 19:54:38.165873  8225 layer_factory.hpp:77] Creating layer bn2
I1206 19:54:38.165882  8225 net.cpp:100] Creating Layer bn2
I1206 19:54:38.165887  8225 net.cpp:434] bn2 <- conv2
I1206 19:54:38.165897  8225 net.cpp:408] bn2 -> bn2
I1206 19:54:38.166056  8225 net.cpp:150] Setting up bn2
I1206 19:54:38.166065  8225 net.cpp:157] Top shape: 100 32 50 50 (8000000)
I1206 19:54:38.166071  8225 net.cpp:165] Memory required for data: 300001200
I1206 19:54:38.166082  8225 layer_factory.hpp:77] Creating layer Sigmoid2
I1206 19:54:38.166093  8225 net.cpp:100] Creating Layer Sigmoid2
I1206 19:54:38.166100  8225 net.cpp:434] Sigmoid2 <- bn2
I1206 19:54:38.166108  8225 net.cpp:408] Sigmoid2 -> Sigmoid2
I1206 19:54:38.166131  8225 net.cpp:150] Setting up Sigmoid2
I1206 19:54:38.166139  8225 net.cpp:157] Top shape: 100 32 50 50 (8000000)
I1206 19:54:38.166144  8225 net.cpp:165] Memory required for data: 332001200
I1206 19:54:38.166151  8225 layer_factory.hpp:77] Creating layer pool2
I1206 19:54:38.166159  8225 net.cpp:100] Creating Layer pool2
I1206 19:54:38.166164  8225 net.cpp:434] pool2 <- Sigmoid2
I1206 19:54:38.166199  8225 net.cpp:408] pool2 -> pool2
I1206 19:54:38.166225  8225 net.cpp:150] Setting up pool2
I1206 19:54:38.166234  8225 net.cpp:157] Top shape: 100 32 25 25 (2000000)
I1206 19:54:38.166239  8225 net.cpp:165] Memory required for data: 340001200
I1206 19:54:38.166244  8225 layer_factory.hpp:77] Creating layer conv3
I1206 19:54:38.166256  8225 net.cpp:100] Creating Layer conv3
I1206 19:54:38.166262  8225 net.cpp:434] conv3 <- pool2
I1206 19:54:38.166271  8225 net.cpp:408] conv3 -> conv3
I1206 19:54:38.168174  8225 net.cpp:150] Setting up conv3
I1206 19:54:38.168196  8225 net.cpp:157] Top shape: 100 64 25 25 (4000000)
I1206 19:54:38.168202  8225 net.cpp:165] Memory required for data: 356001200
I1206 19:54:38.168217  8225 layer_factory.hpp:77] Creating layer bn3
I1206 19:54:38.168231  8225 net.cpp:100] Creating Layer bn3
I1206 19:54:38.168236  8225 net.cpp:434] bn3 <- conv3
I1206 19:54:38.168244  8225 net.cpp:408] bn3 -> bn3
I1206 19:54:38.168432  8225 net.cpp:150] Setting up bn3
I1206 19:54:38.168443  8225 net.cpp:157] Top shape: 100 64 25 25 (4000000)
I1206 19:54:38.168449  8225 net.cpp:165] Memory required for data: 372001200
I1206 19:54:38.168462  8225 layer_factory.hpp:77] Creating layer Sigmoid3
I1206 19:54:38.168473  8225 net.cpp:100] Creating Layer Sigmoid3
I1206 19:54:38.168478  8225 net.cpp:434] Sigmoid3 <- bn3
I1206 19:54:38.168486  8225 net.cpp:408] Sigmoid3 -> Sigmoid3
I1206 19:54:38.168519  8225 net.cpp:150] Setting up Sigmoid3
I1206 19:54:38.168526  8225 net.cpp:157] Top shape: 100 64 25 25 (4000000)
I1206 19:54:38.168531  8225 net.cpp:165] Memory required for data: 388001200
I1206 19:54:38.168537  8225 layer_factory.hpp:77] Creating layer pool3
I1206 19:54:38.168552  8225 net.cpp:100] Creating Layer pool3
I1206 19:54:38.168557  8225 net.cpp:434] pool3 <- Sigmoid3
I1206 19:54:38.168565  8225 net.cpp:408] pool3 -> pool3
I1206 19:54:38.168591  8225 net.cpp:150] Setting up pool3
I1206 19:54:38.168598  8225 net.cpp:157] Top shape: 100 64 12 12 (921600)
I1206 19:54:38.168603  8225 net.cpp:165] Memory required for data: 391687600
I1206 19:54:38.168609  8225 layer_factory.hpp:77] Creating layer ip1
I1206 19:54:38.168622  8225 net.cpp:100] Creating Layer ip1
I1206 19:54:38.168628  8225 net.cpp:434] ip1 <- pool3
I1206 19:54:38.168637  8225 net.cpp:408] ip1 -> ip1
I1206 19:54:38.170519  8225 net.cpp:150] Setting up ip1
I1206 19:54:38.170544  8225 net.cpp:157] Top shape: 100 7 (700)
I1206 19:54:38.170552  8225 net.cpp:165] Memory required for data: 391690400
I1206 19:54:38.170564  8225 layer_factory.hpp:77] Creating layer ip1_ip1_0_split
I1206 19:54:38.170581  8225 net.cpp:100] Creating Layer ip1_ip1_0_split
I1206 19:54:38.170589  8225 net.cpp:434] ip1_ip1_0_split <- ip1
I1206 19:54:38.170599  8225 net.cpp:408] ip1_ip1_0_split -> ip1_ip1_0_split_0
I1206 19:54:38.170611  8225 net.cpp:408] ip1_ip1_0_split -> ip1_ip1_0_split_1
I1206 19:54:38.170671  8225 net.cpp:150] Setting up ip1_ip1_0_split
I1206 19:54:38.170681  8225 net.cpp:157] Top shape: 100 7 (700)
I1206 19:54:38.170688  8225 net.cpp:157] Top shape: 100 7 (700)
I1206 19:54:38.170694  8225 net.cpp:165] Memory required for data: 391696000
I1206 19:54:38.170701  8225 layer_factory.hpp:77] Creating layer accuracy
I1206 19:54:38.170719  8225 net.cpp:100] Creating Layer accuracy
I1206 19:54:38.170724  8225 net.cpp:434] accuracy <- ip1_ip1_0_split_0
I1206 19:54:38.170732  8225 net.cpp:434] accuracy <- label_cifar_1_split_0
I1206 19:54:38.170742  8225 net.cpp:408] accuracy -> accuracy
…
